…
[KeOps] Warning : Cuda libraries were not detected on the system or could not be loaded ; using cpu only mode
main  init  start
main  initUI  start
Model: "sequential"
_________________________________________________________________
Model: "sequential"
_________________________________________________________________
 Layer (type)                Output Shape              Param #   
=================================================================
 Layer (type)                Output Shape              Param #   
=================================================================
 conv2d (Conv2D)             (None, 32, 32, 64)        3136      
                                                                 
 conv2d_1 (Conv2D)           (None, 16, 16, 128)       131200    
                                                                 
 conv2d_2 (Conv2D)           (None, 8, 8, 512)         1049088   
                                                                 
 flatten (Flatten)           (None, 32768)             0         
                                                                 
 dense (Dense)               (None, 1024)              33555456  
                                                                 
=================================================================
 conv2d (Conv2D)             (None, 32, 32, 64)        3136      
Total params: 34738880 (132.52 MB)
                                                                 
Trainable params: 34738880 (132.52 MB)
 conv2d_1 (Conv2D)           (None, 16, 16, 128)       131200    
                                                                 
Non-trainable params: 0 (0.00 Byte)
 conv2d_2 (Conv2D)           (None, 8, 8, 512)         1049088   
_________________________________________________________________
None
                                                                 
 flatten (Flatten)           (None, 32768)             0         
                                                                 
 dense (Dense)               (None, 1024)              33555456  
                                                                 
=================================================================
Total params: 34738880 (132.52 MB)
Trainable params: 34738880 (132.52 MB)
Non-trainable params: 0 (0.00 Byte)
_________________________________________________________________
None
Model: "sequential"
_________________________________________________________________
 Layer (type)                Output Shape              Param #   
=================================================================
 conv2d (Conv2D)             (None, 32, 32, 64)        3136      
                                                                 
 conv2d_1 (Conv2D)           (None, 16, 16, 128)       131200    
                                                                 
 conv2d_2 (Conv2D)           (None, 8, 8, 512)         1049088   
                                                                 
 flatten (Flatten)           (None, 32768)             0         
                                                                 
 dense (Dense)               (None, 1024)              33555456  
                                                                 
=================================================================
Total params: 34738880 (132.52 MB)
Trainable params: 34738880 (132.52 MB)
Non-trainable params: 0 (0.00 Byte)
_________________________________________________________________
None
Model: "sequential"
_________________________________________________________________
 Layer (type)                Output Shape              Param #   
=================================================================
 conv2d (Conv2D)             (None, 32, 32, 64)        3136      
                                                                 
 conv2d_1 (Conv2D)           (None, 16, 16, 128)       131200    
                                                                 
 conv2d_2 (Conv2D)           (None, 8, 8, 512)         1049088   
                                                                 
 flatten (Flatten)           (None, 32768)             0         
                                                                 
 dense (Dense)               (None, 1024)              33555456  
                                                                 
=================================================================
Total params: 34738880 (132.52 MB)
Trainable params: 34738880 (132.52 MB)
Non-trainable params: 0 (0.00 Byte)
_________________________________________________________________
None
main  initUI  end
main  init  end
Model: "sequential_1"
_________________________________________________________________
 Layer (type)                Output Shape              Param #   
=================================================================
 dense_1 (Dense)             (None, 32768)             33587200  
                                                                 
 reshape (Reshape)           (None, 8, 8, 512)         0         
                                                                 
 conv2d_transpose (Conv2DTr  (None, 16, 16, 256)       2097408   
 anspose)                                                        
                                                                 
 conv2d_transpose_1 (Conv2D  (None, 32, 32, 64)        262208    
 Transpose)                                                      
                                                                 
Model: "sequential_1"
 conv2d_transpose_2 (Conv2D  (None, 64, 64, 3)         3075      
 Transpose)                                                      
Model: "sequential_1"
_________________________________________________________________
                                                                 
_________________________________________________________________
=================================================================
 Layer (type)                Output Shape              Param #   
Total params: 35949891 (137.14 MB)
=================================================================
Model: "sequential_1"
_________________________________________________________________
 Layer (type)                Output Shape              Param #   
 dense_1 (Dense)             (None, 32768)             33587200  
                                                                 
 Layer (type)                Output Shape              Param #   
=================================================================
=================================================================
 reshape (Reshape)           (None, 8, 8, 512)         0         
Trainable params: 35949891 (137.14 MB)
Non-trainable params: 0 (0.00 Byte)
_________________________________________________________________
 dense_1 (Dense)             (None, 32768)             33587200  
                                                                 
None
                                                                 
 conv2d_transpose (Conv2DTr  (None, 16, 16, 256)       2097408   
 reshape (Reshape)           (None, 8, 8, 512)         0         
                                                                 
 anspose)                                                        
 conv2d_transpose (Conv2DTr  (None, 16, 16, 256)       2097408   
                                                                 
 anspose)                                                        
 conv2d_transpose_1 (Conv2D  (None, 32, 32, 64)        262208    
Current threshold value is:  0.015
                                                                 
 Transpose)                                                      
                                                                 
 conv2d_transpose_1 (Conv2D  (None, 32, 32, 64)        262208    
 dense_1 (Dense)             (None, 32768)             33587200  
                                                                 
 conv2d_transpose_2 (Conv2D  (None, 64, 64, 3)         3075      
 reshape (Reshape)           (None, 8, 8, 512)         0         
                                                                 
 Transpose)                                                      
 conv2d_transpose (Conv2DTr  (None, 16, 16, 256)       2097408   
 Transpose)                                                      
                                                                 
 anspose)                                                        
                                                                 
                                                                 
 conv2d_transpose_2 (Conv2D  (None, 64, 64, 3)         3075      
 conv2d_transpose_1 (Conv2D  (None, 32, 32, 64)        262208    
 Transpose)                                                      
 Transpose)                                                      
                                                                 
                                                                 
=================================================================
 conv2d_transpose_2 (Conv2D  (None, 64, 64, 3)         3075      
=================================================================
 Transpose)                                                      
                                                                 
=================================================================
Total params: 35949891 (137.14 MB)
Total params: 35949891 (137.14 MB)
Trainable params: 35949891 (137.14 MB)
Non-trainable params: 0 (0.00 Byte)
…
