…
2024-09-14 15:30:52.369716: W tensorflow/tsl/framework/cpu_allocator_impl.cc:83] Allocation of 134217728 exceeds 10% of free system memory.
2024-09-14 15:30:52.375437: W tensorflow/tsl/framework/cpu_allocator_impl.cc:83] Allocation of 134217728 exceeds 10% of free system memory.
2.14.1
[KeOps] Warning : Cuda libraries were not detected on the system or could not be loaded ; using cpu only mode
main  init  start
main  initUI  start
Model: "sequential"
_________________________________________________________________
 Layer (type)                Output Shape              Param #   
=================================================================
 conv2d (Conv2D)             (None, 32, 32, 64)        3136      
                                                                 
 conv2d_1 (Conv2D)           (None, 16, 16, 128)       131200    
                                                                 
 conv2d_2 (Conv2D)           (None, 8, 8, 512)         1049088   
                                                                 
 flatten (Flatten)           (None, 32768)             0         
                                                                 
 dense (Dense)               (None, 1024)              33555456  
                                                                 
=================================================================
Total params: 34738880 (132.52 MB)
Trainable params: 34738880 (132.52 MB)
Non-trainable params: 0 (0.00 Byte)
_________________________________________________________________
None
Model: "sequential"
_________________________________________________________________
 Layer (type)                Output Shape              Param #   
=================================================================
 conv2d (Conv2D)             (None, 32, 32, 64)        3136      
                                                                 
 conv2d_1 (Conv2D)           (None, 16, 16, 128)       131200    
                                                                 
 conv2d_2 (Conv2D)           (None, 8, 8, 512)         1049088   
                                                                 
 flatten (Flatten)           (None, 32768)             0         
                                                                 
 dense (Dense)               (None, 1024)              33555456  
                                                                 
=================================================================
Total params: 34738880 (132.52 MB)
Trainable params: 34738880 (132.52 MB)
Non-trainable params: 0 (0.00 Byte)
_________________________________________________________________
None
Model: "sequential"
_________________________________________________________________
 Layer (type)                Output Shape              Param #   
=================================================================
 conv2d (Conv2D)             (None, 32, 32, 64)        3136      
                                                                 
 conv2d_1 (Conv2D)           (None, 16, 16, 128)       131200    
                                                                 
 conv2d_2 (Conv2D)           (None, 8, 8, 512)         1049088   
                                                                 
 flatten (Flatten)           (None, 32768)             0         
                                                                 
 dense (Dense)               (None, 1024)              33555456  
                                                                 
=================================================================
Total params: 34738880 (132.52 MB)
Trainable params: 34738880 (132.52 MB)
Non-trainable params: 0 (0.00 Byte)
_________________________________________________________________
None
main  initUI  end
main  init  end
Model: "sequential"
_________________________________________________________________
 Layer (type)                Output Shape              Param #   
=================================================================
 conv2d (Conv2D)             (None, 32, 32, 64)        3136      
                                                                 
 conv2d_1 (Conv2D)           (None, 16, 16, 128)       131200    
                                                                 
 conv2d_2 (Conv2D)           (None, 8, 8, 512)         1049088   
                                                                 
 flatten (Flatten)           (None, 32768)             0         
                                                                 
 dense (Dense)               (None, 1024)              33555456  
                                                                 
=================================================================
Total params: 34738880 (132.52 MB)
Trainable params: 34738880 (132.52 MB)
Non-trainable params: 0 (0.00 Byte)
_________________________________________________________________
None
Model: "sequential_1"
_________________________________________________________________
 Layer (type)                Output Shape              Param #   
=================================================================
Model: "sequential_1"
_________________________________________________________________
 dense_1 (Dense)             (None, 32768)             33587200  
 Layer (type)                Output Shape              Param #   
=================================================================
                                                                 
 dense_1 (Dense)             (None, 32768)             33587200  
                                                                 
 reshape (Reshape)           (None, 8, 8, 512)         0         
 reshape (Reshape)           (None, 8, 8, 512)         0         
                                                                 
                                                                 
 conv2d_transpose (Conv2DTr  (None, 16, 16, 256)       2097408   
 conv2d_transpose (Conv2DTr  (None, 16, 16, 256)       2097408   
 anspose)                                                        
                                                                 
 anspose)                                                        
 conv2d_transpose_1 (Conv2D  (None, 32, 32, 64)        262208    
                                                                 
 Transpose)                                                      
                                                                 
 conv2d_transpose_1 (Conv2D  (None, 32, 32, 64)        262208    
 conv2d_transpose_2 (Conv2D  (None, 64, 64, 3)         3075      
 Transpose)                                                      
                                                                 
 Transpose)                                                      
                                                                 
 conv2d_transpose_2 (Conv2D  (None, 64, 64, 3)         3075      
=================================================================
 Transpose)                                                      
Total params: 35949891 (137.14 MB)
                                                                 
=================================================================
Trainable params: 35949891 (137.14 MB)
Total params: 35949891 (137.14 MB)
Non-trainable params: 0 (0.00 Byte)
Trainable params: 35949891 (137.14 MB)
Non-trainable params: 0 (0.00 Byte)
_________________________________________________________________
Model: "sequential_1"
_________________________________________________________________
None
_________________________________________________________________
None
 Layer (type)                Output Shape              Param #   
=================================================================
 dense_1 (Dense)             (None, 32768)             33587200  
                                                                 
Current threshold value is:  0.015
 reshape (Reshape)           (None, 8, 8, 512)         0         
Current threshold value is:  0.015
                                                                 
 conv2d_transpose (Conv2DTr  (None, 16, 16, 256)       2097408   
 anspose)                                                        
                                                                 
 conv2d_transpose_1 (Conv2D  (None, 32, 32, 64)        262208    
 Transpose)                                                      
                                                                 
Model: "sequential_1"
_________________________________________________________________
 conv2d_transpose_2 (Conv2D  (None, 64, 64, 3)         3075      
 Transpose)                                                      
                                                                 
=================================================================
 Layer (type)                Output Shape              Param #   
Total params: 35949891 (137.14 MB)
=================================================================
Trainable params: 35949891 (137.14 MB)
 dense_1 (Dense)             (None, 32768)             33587200  
Non-trainable params: 0 (0.00 Byte)
_________________________________________________________________
                                                                 
None
 reshape (Reshape)           (None, 8, 8, 512)         0         
                                                                 
 conv2d_transpose (Conv2DTr  (None, 16, 16, 256)       2097408   
 anspose)                                                        
                                                                 
 conv2d_transpose_1 (Conv2D  (None, 32, 32, 64)        262208    
 Transpose)                                                      
                                                                 
Current threshold value is:  0.015
 conv2d_transpose_2 (Conv2D  (None, 64, 64, 3)         3075      
 Transpose)                                                      
                                                                 
=================================================================
Total params: 35949891 (137.14 MB)
Trainable params: 35949891 (137.14 MB)
Non-trainable params: 0 (0.00 Byte)
_________________________________________________________________
WARNING:tensorflow:No training configuration found in the save file, so the model was *not* compiled. Compile it manually.
…
